model/model_gray.pth (torch, 948751 bytes, 8 tensors)

w f4 [50, 5, 5]
000000 6a 2c 02 bf 2e c3 a6 bf 3c 48 ad 3e 50 99 3a bf
       -0.5084902 -1.3028314 0.33844173 -0.72890186
000010 5d 12 af 3e b6 45 03 bf 01 36 17 bf 48 d0 10 3e
       0.34193698 -0.51278245 -0.5906678 0.14141953
000020 bf f8 ba 3e 2a 6b ec 3e cc 2f 08 bf 38 3d c7 bf
       0.36517903 0.4617551 -0.5319793 -1.5565557
000030 d9 9e 54 be e7 c9 44 3f 06 cc be bf f6 87 a6 bf
       -0.2076372 0.7687058 -1.4906013 -1.3010242
000040 2a 09 b4 bf 91 b3 73 be ef 07 92 3f 3f d9 6a 3e
       -1.4065297 -0.23798968 1.1408671 0.22934435
000050 30 57 92 3f 67 4f 47 be 82 3d 71 bf b5 87 3c 3e
       1.1432858 -0.19463883 -0.9423448 0.18411143
000060 a3 48 f0 3d 37 50 56 be eb 38 ce bf 80 b5 78 3f
       0.11732604 -0.20929037 -1.611112 0.9715195
000070 f3 58 b3 bf eb 0e 56 bf d1 8d 3b bf 1d 22 c8 3f
       -1.401152 -0.83616513 -0.7326327 1.563541
000080 60 9f 25 3f 33 9f 92 bf b9 d5 2e bd d9 26 86 3f
       0.6469631 -1.1454834 -0.04268429 1.0480605
000090 fa 4b 1a 3e c5 f6 80 3f b3 c7 60 3f 08 9a 22 3f
       0.15068045 1.0075308 0.87804717 0.63516283
0000a0 4b 45 9b bf ce fc 77 be a2 b6 15 3d 66 70 ee 3e
       -1.2130522 -0.24217531 0.036551125 0.46570128
0000b0 d1 be 37 3d 60 62 11 3f 93 22 cc bd d5 e5 49 bd
       0.04485971 0.56790733 -0.09967532 -0.04929145
0000c0 88 ab 82 bf ad 8e 0f c0 a6 a0 07 bf be 14 3e 3f
       -1.0208597 -2.2430832 -0.52979505 0.742504
0000d0 fd 3a df 3f 1e b0 1b 3f 4b fb d6 bf 57 b5 ce be
       1.7439877 0.6081561 -1.6795439 -0.40372726
0000e0 e1 14 8e bf 0f 6d 1a bf b8 29 16 3f 3f 6e ab 3f
       -1.1100122 -0.6032266 0.5865741 1.339302
0000f0 42 30 01 bf f9 67 c3 bf e2 87 eb be 2a db 85 be
       -0.5046426 -1.5266105 -0.46002108 -0.2614377
000100 3b 5f 24 3f 55 83 88 bd 78 15 d9 3d a4 dc 8a bf
       0.6420781 -0.066656746 0.10599798 -1.0848584
000110 e0 0e d4 3f 7f 5b 52 bf c7 02 bc bd 1d ab b7 3f
       1.656704 -0.8217086 -0.09180217 1.4349095
000120 fb c2 bc be cb 8f dd 3f 78 f1 95 3e b3 0f 65 bf
       -0.36867508 1.7309507 0.2928579 -0.8947708
000130 61 d5 60 3f 1a 05 43 3f ac 13 64 3f 6e 9f 19 40
       0.8782559 0.7617966 0.89092517 2.4003558
000140 58 a4 ed bf 1b 82 73 3e 96 8f f0 be 6d 09 f4 3c
       -1.8565779 0.237801 -0.46984547 0.02978965
000150 eb 0c 25 bf 70 01 9d bf 72 5c 23 3f a5 14 22 3f
       -0.64472836 -1.2266064 0.63812935 0.6331275
000160 b0 56 3c 3f 98 9d 5d 3e a5 80 01 c0 02 ec 62 bf
       0.73569775 0.21642148 -2.0234768 -0.8864137
000170 27 07 b8 be 53 e1 44 3f 30 e6 88 3f eb 44 4f bf
       -0.35942957 0.7690632 1.0695248 -0.80964535
000180 e7 29 41 3f 6d 4e 97 be 05 76 9c 3f d9 24 ae 3e
       0.7545456 -0.29552022 1.2223517 0.34012488
000190 89 44 28 bf a1 db 9b 3f 1e f3 94 bf b4 83 bf bf
       -0.65729576 1.21764 -1.1636693 -1.4962068
0001a0 c4 9e 96 3e 07 65 85 3f f0 c6 80 bf 5d 73 7a be
       0.29418004 1.0421456 -1.0060711 -0.2445807
0001b0 d9 44 bd bf 56 b8 9f bf c5 b3 30 3f e2 39 e3 3f
       -1.4786636 -1.247813 0.69024307 1.775204
0001c0 f1 c1 42 bf ae d6 c2 3e dc 8b 19 be ca 57 a1 3f
       -0.7607718 0.38054413 -0.14994758 1.2604916
0001d0 86 eb a0 bf 8b a0 19 3f 73 f5 e0 3e f5 8a 73 bf
       -1.2571876 0.60010594 0.43937263 -0.95133907
0001e0 ef 5d a9 bf c5 a2 c6 3d 2b 10 d1 3e 8c 5a 1c bf
       -1.3231791 0.096990146 0.40832648 -0.61075664
0001f0 4f 34 48 bf 26 21 ad be d3 7e 52 bf 23 ea 13 c0
       -0.78204817 -0.33814353 -0.8222477 -2.3111656
000200 ed f0 76 be 33 64 5c 3e e9 0d fb 3f 15 db 69 3f
       -0.24115343 0.21522598 1.961362 0.9134992
000210 d1 9a a7 3f 91 a3 92 3f ec 7d 5b bf e1 19 85 3f
       1.3094121 1.1456167 -0.85739017 1.0398523
000220 b2 17 06 bf ad ce 9e bf 63 6b 30 3f fd 55 90 3f
       -0.52379906 -1.2406822 0.6891386 1.1276242
000230 90 b1 c9 be 5e 6b 57 bf 63 98 16 bd 3a 40 30 3f
       -0.39393282 -0.84148204 -0.03676642 0.68848
000240 64 9c a9 bf 4c 45 40 3e 3a 34 06 bf 13 a4 04 be
       -1.3250852 0.18776435 -0.5242344 -0.12953214
000250 bb a7 84 bc a3 e5 87 3f 2d df a7 bf 6d 4a f0 3e
       -0.016193261 1.0616955 -1.3114983 0.46931782
000260 0e d3 d7 3e 22 20 af bf 23 41 b1 bf 44 24 8b 3f
       0.4215321 -1.3681681 -1.3848003 1.0870442
000270 d1 f0 d8 3e a4 15 8b bf 09 16 58 bf da 7a 9f 3e
       0.42371228 -1.0865979 -0.8440862 0.31148416
000280 52 17 46 3f a7 27 82 3e 98 84 25 3e 9d 3d 91 3d
       0.77379334 0.25420877 0.16163862 0.0709183
000290 6c c9 6e be f3 59 15 bf 3c 0d 4c bf ff b9 2d bd
       -0.23319024 -0.58340377 -0.79707694 -0.042413708
0002a0 26 35 a6 bf 46 c5 39 be 40 a5 91 3f 2c a9 15 3f
       -1.298497 -0.1814166 1.1378555 0.5846126
0002b0 3e 1c 5b bd 4c ed 2b 3d e1 d1 94 3f 5f 07 80 bc
       -0.05349373 0.04197435 1.162655 -0.015628515
0002c0 9a 27 ab 3e 45 af 85 3f 16 3a 3a bf c0 e1 7d 3d
       0.3342865 1.0444113 -0.7274488 0.06198287
0002d0 72 68 0e bf 88 6a 11 3e 09 5d df 3e 2b 2c 8b bc
       -0.5562812 0.14200795 0.43625668 -0.016988834
0002e0 bb 72 29 bf 3c 4c 17 bf 39 b7 2f bf 73 34 ce 3f
       -0.6619069 -0.591007 -0.6863895 1.6109756
0002f0 e1 a0 c0 bc 72 21 a9 3f 44 13 cc 3c b0 49 d7 bd
       -0.023514213 1.3213332 0.02491153 -0.10512102
000300 9b cb ee be a2 88 4f 3e 78 41 dc 3f 9d 49 b3 3f
       -0.46639714 0.20266965 1.720748 1.400684
000310 63 87 3f bf d8 e9 94 bf 9e 62 f5 bf 81 8a b7 3e
       -0.7481596 -1.1633863 -1.917072 0.35847858
000320 2a 7a bb bf 85 ab 90 3f 38 43 20 bf d0 50 a7 bf
       -1.4646657 1.1302344 -0.6260257 -1.3071537
000330 dd 96 5e be f3 1c 53 bf 42 0d 98 be 68 a5 ac 3d
       -0.21737237 -0.8246605 -0.29697615 0.08429986
000340 00 45 1d be d9 a0 4c bd 59 7b 0d bf 05 67 8e 3e
       -0.15358353 -0.049958084 -0.5526634 0.27812973
000350 fa e4 e1 bf d4 54 74 3f 1e 16 1f 3f e4 8a 63 bf
       -1.7648003 0.9544194 0.62143123 -0.88883805
000360 99 fc 0f 3f a4 b8 f5 bf 53 5a c4 3e 58 18 eb 3c
       0.5624481 -1.9196973 0.38350162 0.028698131
000370 d8 8e ae 3f 42 84 7e bf 0d 06 f9 3f 24 e0 36 3e
       1.3637342 -0.9942056 1.9454972 0.1785894
000380 57 a2 51 be 01 26 6c 3f d5 23 36 3f 2f 53 bc 3f
       -0.20472084 0.9224549 0.71148425 1.4712886
000390 12 bd f6 bd 8f fd d9 3e 48 07 20 3f 8e 69 0a 3f
       -0.12047781 0.42576262 0.6251111 0.54067314
0003a0 7a 10 7e 3f 32 04 f5 be cf 12 a1 bf f6 a8 83 3f
       0.9924389 -0.47854763 -1.2583865 1.0285938
0003b0 71 28 a3 bf b5 ed fc 3e a4 10 11 3e 54 48 cf 3e
       -1.2746717 0.49400106 0.14166504 0.4048487
0003c0 7e 0d dc bf f4 5f ab 3f 1e 0f d6 be df 19 56 bf
       -1.7191617 1.3388658 -0.41808408 -0.83633226
0003d0 ad 77 41 bf 04 66 31 3f 69 17 17 be 41 d6 19 3f
       -0.75573236 0.6929629 -0.14755024 0.6009255
0003e0 74 4d 96 3e ce 72 8d be 4e 87 87 bf 3c fd 11 c0
       0.29355967 -0.27626652 -1.0588167 -2.2810812
0003f0 48 0e 1e bd 8a 71 1d 3f 14 ab 07 3f 61 3b 65 3f
       -0.03858784 0.6150137 0.5299542 0.8954373

q f4 [50, 5, 5]
000000 b7 bb dd 3f 6a 2b 12 40 40 75 30 3f 8f 8a c8 3f
       1.7322911 2.2838998 0.6892891 1.5667285
000010 c1 c9 e3 3f 3c 8f 1e 3e bc 60 77 bf 24 4c 7c bf
       1.7795945 0.15484327 -0.9663198 -0.9855368
000020 ef d9 0b be 76 dd 37 be 6e cd 20 3e 63 97 6a 3f
       -0.13657354 -0.17955574 0.15703365 0.9163725
000030 1b 2b 6f bf 91 6f 47 bd d8 26 8b bf ae 17 54 3e
       -0.9342515 -0.048690382 -1.0871229 0.20712158
000040 a7 ad 28 3e 2e f3 40 3f 74 b8 87 3f 6c db a8 bf
       0.16472493 0.7537106 1.0603166 -1.3191962
000050 bf b3 59 3f 50 d2 90 3f 72 17 24 3d f1 28 1c 3e
       0.85039896 1.1314182 0.04006142 0.15249993
000060 fe ff c3 bf a6 f5 7e bf 85 c2 c7 3f ef 45 41 bf
       -1.5312498 -0.9959358 1.5606238 -0.75497335
000070 c4 26 e2 3d 5b dd 53 3f 93 37 34 3f ec cc 6d 40
       0.1104255 0.82759637 0.703973 3.7156324
000080 ef 5f d1 3f 20 9d 5c 3f f1 af 82 be 5e 97 ea be
       1.6357402 0.86177254 -0.25524858 -0.4581861
000090 dd ff 1c bf fe 16 62 bf 46 ef 01 3e cb 05 c8 3e
       -0.61327916 -0.88316333 0.12688932 0.3906692
0000a0 3c f0 9e 3f 1d 6a 07 40 49 56 ab bd 08 e5 83 3f
       1.2417064 2.1158516 -0.08366067 1.030427
0000b0 c9 20 40 bf b7 05 c1 bf 0f 6c 61 3f 66 84 a3 be
       -0.75050026 -1.5079869 0.8805551 -0.3193695
0000c0 44 29 0f 3f 40 0e a6 bf 09 d7 85 3f 4e 59 82 be
       0.5592234 -1.2973099 1.0456249 -0.2545876
0000d0 d5 5e 1e bf a7 bd ce 3f c2 cd 92 bf 5f f9 b7 bf
       -0.6186345 1.6151627 -1.1469042 -1.4372977
0000e0 8c ce 8c bf 1e 27 0d c0 5e 57 8b 3f bf 08 99 be
       -1.1000533 -2.2055125 1.0886037 -0.29889485
0000f0 05 78 0f 3f 87 ab 9e bf 06 9c f7 3e 36 7b ec bf
       0.5604251 -1.2396096 0.48361224 -1.8475101
000100 93 d5 8c bf bc 73 86 3e 91 ac dc bf 64 ea b7 3d
       -1.1002678 0.26260173 -1.7240163 0.08980253
000110 88 92 02 40 86 65 b5 bf af 64 91 3e d0 74 36 bf
       2.0401936 -1.4171607 0.28397128 -0.7127199
000120 b1 af 8b 3f 06 9b d4 bd cc 6e ef 3e ef b4 87 bf
       1.0912992 -0.10381131 0.4676422 -1.0602092
000130 c6 36 f4 be 60 91 29 bf 9e cc 2d bf 27 ca 58 3c
       -0.4769804 -0.6623745 -0.67890346 0.013231791
000140 64 8b 44 3f d5 7d 06 3f a9 4f 88 3e a2 75 b1 3d
       0.76775193 0.52535754 0.26623276 0.08665015
000150 e2 59 be bf 6e c8 3b 3f 9f 67 ef 3e 02 60 a7 bf
       -1.487118 0.73352706 0.46758744 -1.3076174
000160 f3 29 06 40 25 d6 4e 3f 9e 54 57 bf 57 32 34 bf
       2.0963104 0.8079551 -0.8411349 -0.7038931
000170 db 99 b6 be 2a b8 a2 3f aa fe 73 be b2 ed 42 3f
       -0.35664257 1.2712452 -0.23827615 0.76143944
000180 c4 ff c4 3f 95 17 b2 3e 48 08 22 c0 8b ad 19 40
       1.5390553 0.34783617 -2.5317554 2.4012172
000190 77 60 5b bf 78 0d 8c bd 45 b4 95 3e 93 1d c2 3d
       -0.8569407 -0.068385065 0.29239097 0.09478297
0001a0 7a 60 12 be ee 06 fc be 66 44 f0 3f 41 55 94 3e
       -0.14294615 -0.49224037 1.8770874 0.28971294
0001b0 e5 e0 32 3f a7 da 8e be 7e 60 8d be 7d 83 c8 3f
       0.6987441 -0.27901193 -0.2761268 1.5665127
0001c0 82 b3 14 3e ad bf e1 bf 04 6e c5 3e d0 34 97 3f
       0.14521602 -1.763662 0.38560498 1.1812992
0001d0 1b 53 95 bd 73 c6 2c 3d fa 41 26 bf e1 74 7d 3f
       -0.07291242 0.042181443 -0.6494442 0.9900647
0001e0 d5 68 bf 3f 3f 86 ba be 95 c1 11 be ba fe dd be
       1.4953867 -0.36430547 -0.14234002 -0.43358403
0001f0 79 e0 c6 3f 08 f5 c9 3f 56 ad 86 bf 4d 92 1e bd
       1.5537254 1.5777903 -1.0521648 -0.038713742
000200 34 e3 60 3e 8a f7 04 40 65 90 bb bf 52 bd c3 bf
       0.21961671 2.0776086 -1.4653441 -1.5292151
000210 f7 d8 bf bf 66 f0 8d 3f a4 83 91 bf e2 e3 7a 3f
       -1.4988087 1.1088989 -1.1368299 0.9800397
000220 58 30 7c 3e e0 18 09 3f ef 72 3d be 25 03 fc be
       0.24627817 0.5355358 -0.18500875 -0.4922115
000230 44 53 69 be f9 c0 80 3f ea b3 a5 bf c0 e9 e1 bf
       -0.2278567 1.005889 -1.294553 -1.764946
000240 c5 cc 47 3f e2 f4 12 3b 23 cf 96 3f 23 67 78 3e
       0.7804683 0.0022423794 1.1781963 0.24258094
000250 ad 48 02 3f 50 b1 24 3f fd 4a 50 be d6 ae fe bf
       0.50892144 0.6433306 -0.20341106 -1.9897106
000260 dc f3 5e 39 86 f1 58 be 8e b2 a9 3f e3 5f 4c 3f
       0.00021262415 -0.21185884 1.3257616 0.7983381
000270 8d 32 73 bd 87 9d 76 be 78 2b cb bd c6 b6 a8 3f
       -0.05937438 -0.2408353 -0.099204004 1.3180778
000280 a4 c1 0c 40 63 64 a2 3f f9 d0 0e bf 2b 80 e6 be
       2.199319 1.2686886 -0.55787617 -0.4501966
000290 a0 0d 4d bf 75 e5 8b bf df 80 d6 3e e8 7d 34 3f
       -0.80098915 -1.09294 0.41895196 0.7050462
0002a0 cd 3b 33 3f 85 92 e1 bf ce 44 d2 3e 54 50 84 be
       0.70013124 -1.7622839 0.4106812 -0.25842535
0002b0 b6 43 8a 3f ce e4 a6 3f 27 0f 72 3d 98 89 f5 bf
       1.0801914 1.3038576 0.05909648 -1.9182615
0002c0 f6 73 15 be f8 03 a8 bf 35 70 54 bf 4a 7c 41 3f
       -0.14595017 -1.3126211 -0.82983714 0.75580275
0002d0 f9 e5 d0 3e 99 7b 54 3f e5 13 a9 bd c3 e0 ef 3e
       0.40800455 0.83001095 -0.08255748 0.46851167
0002e0 92 e9 b4 3f b2 04 39 bf 29 5f 99 3e a9 14 5d bd
       1.413378 -0.7227279 0.29955414 -0.05397478
0002f0 33 13 84 bd ae 83 09 bf 03 7e 98 be c3 30 82 be
       -0.064489745 -0.5371655 -0.2978364 -0.25427827
000300 d6 0b 85 3d 04 84 1e 3f 66 6c d9 be b3 53 9e be
       0.06496398 0.6192019 -0.42465514 -0.30923232
000310 90 53 1f 3f 08 e5 72 bf 39 6f a7 3f 06 82 24 3f
       0.6223688 -0.94880724 1.3080817 0.642609
000320 23 c9 36 3f 76 0a bb bf 80 7f 58 3f de 54 09 3f
       0.7140066 -1.4612567 0.8456955 0.5364512
000330 d4 01 41 be db fd e8 3f 0f 26 78 bf 60 5b c3 3e
       -0.18848354 1.820247 -0.9693307 0.3815565
000340 08 0d e3 3e 5b 22 d5 3f 9e fe 72 3f cb 28 30 3f
       0.4434588 1.665111 0.94919765 0.68812245
000350 1f 6e d9 bf 17 f7 70 bf 4a 41 50 be 3a f3 ae 3e
       -1.6986731 -0.9412703 -0.20337406 0.34169942
000360 91 cd c3 3e 7e 56 bc 3e 24 be 7c bf d6 02 13 3c
       0.38242772 0.36784738 -0.9872763 0.008972844
000370 d0 3a 6c 3f 14 16 a9 3e 95 a6 e1 3f 1d 68 fa 3e
       0.9227724 0.33024657 1.7628962 0.48907557
000380 8c 75 10 c0 6e e9 a1 bf 6d 1e c3 3f d0 08 72 bf
       -2.2571745 -1.2649362 1.524366 -0.94544697
000390 0f 5c 4b 3e e5 a1 58 3f 53 08 9b bf c3 a7 6e bf
       0.19859336 0.8462203 -1.2111915 -0.93224734
0003a0 30 48 07 bf 09 50 75 be de 23 4d 3f a4 5c 28 3f
       -0.52844524 -0.23956312 0.80132854 0.6576636
0003b0 bf d2 b2 3f 01 34 ee be c2 02 f9 3e 66 5a 2f bf
       1.3970565 -0.4652405 0.48634917 -0.6849731
0003c0 1c 23 16 bf ab e2 04 bf 13 02 ad bf 13 56 a2 3f
       -0.5864732 -0.5190837 -1.3516258 1.2682518
0003d0 d5 f8 c1 3e 81 35 19 3f b8 b9 6d 3f 8d 45 e0 3f
       0.37885156 0.59847265 0.9286151 1.7521225
0003e0 3a 93 35 bf 5c 52 54 bf 9a f9 28 bc ae 77 2f 3f
       -0.70927775 -0.8293817 -0.010313416 0.6854199
0003f0 17 65 8d be af 31 30 3f 7e b4 64 bf 12 ef 93 ba
       -0.27616188 0.6882581 -0.8933791 -0.0011286458

weight f4 [128, 1800]
000000 48 87 91 3d 16 50 05 be 8f aa ff 3d bc 46 55 3d
       0.07105881 -0.13018832 0.12483703 0.05206941
000010 8f a3 96 3d 5a bc 92 3d 27 97 b3 bd d0 17 87 39
       0.07355415 0.071648315 -0.087690644 0.00025766948
000020 21 db ed bd d8 f5 42 3d f4 14 8d 3d ac 3c 06 bd
       -0.11614061 0.047597736 0.06888762 -0.032772705
000030 a1 39 d9 3d 37 28 b4 3d c2 22 e9 bc 60 95 d8 3c
       0.10606695 0.08796733 -0.028458957 0.026438415
000040 0c 77 7d 3d 94 07 d4 bd 6c ac b6 bb 3e 6e 2d bd
       0.06188111 -0.10353008 -0.0055747535 -0.042341463
000050 3e a5 c4 3d 1a e0 72 bc 4e 42 d6 3d c2 00 84 3d
       0.0960183 -0.014823938 0.10461865 0.06445457
000060 81 1b f7 3c 81 8f 26 be 0b eb ef 3c 5d fc ec bc
       0.030164482 -0.1626568 0.029286882 -0.02892893
000070 41 3e c9 3d 0c 30 37 3d 92 27 2c bc dc 50 fc 3d
       0.09826327 0.044723555 -0.010507481 0.1232011
000080 0b 5b 83 3d c4 6b 16 3d fd b0 95 3c 1f 85 b6 bd
       0.064138494 0.036723867 0.018272871 -0.089121096
000090 19 d8 0d bc f0 1e 5f bd 52 1e 02 be 57 3d 39 bc
       -0.008657479 -0.054472864 -0.12706879 -0.011306128
0000a0 72 9c 4b be 3f da 5b 3d 2d db e5 3d 8d e0 f9 3b
       -0.19883898 0.053674933 0.11223445 0.0076256455
0000b0 4d 68 ab 3d 97 de 0d bd 06 33 d7 3d 8a b4 94 bc
       0.08369503 -0.034636106 0.10507779 -0.018152494
0000c0 9f 3c 0b 3e a0 fd 4b bd c6 d6 ca 3d 36 24 87 bd
       0.13597344 -0.049802423 0.09904246 -0.065987036
0000d0 a4 c5 1a 3e 04 84 9d 3d 8d 97 44 3c 3a 43 f8 3c
       0.15114456 0.076911956 0.011999023 0.030305494
0000e0 04 4e 81 3b 7c 66 02 3c ce fb b7 bd cc d8 c1 3c
       0.0039460678 0.0079590045 -0.08983575 0.023662947
0000f0 d7 d4 fc 3d 9d c0 a1 bd 3a fc 22 3d e6 3a 03 3e
       0.123452835 -0.07898066 0.039791323 0.12815437
000100 7c b9 21 3d 11 e4 64 3d ee 73 0b 3d 48 d6 f9 bd
       0.039483532 0.055881564 0.034046106 -0.12199074
000110 d1 0a 2a bc b8 de 3b bd 89 31 9c 3d 3a 24 44 bd
       -0.010378555 -0.045866698 0.076266356 -0.04788611
000120 a6 fc c1 3d 17 7d 94 3d b9 f7 a8 3b 07 e8 e6 bd
       0.09472017 0.072504215 0.005156484 -0.112747245
000130 43 f7 2c 3d 20 4e 3c 3d 5e cd 7f 3d 55 87 50 3d
       0.042227995 0.045972943 0.062451713 0.050910313
000140 e5 35 16 3d f3 a1 e8 3d 90 38 86 3d c2 64 97 3d
       0.03667249 0.11359014 0.06553757 0.07392265
000150 22 72 30 3d 81 4c 94 bd f8 6e 3d bb 25 5c 89 bd
       0.043077596 -0.072411545 -0.0028905254 -0.06707028
000160 e1 d6 ce bd 49 ab 1a ba ad a5 bd bd 80 b5 87 3d
       -0.10099579 -0.0005900157 -0.09260116 0.06626415
000170 8c b8 f1 3d 5f e2 c5 bc 71 11 c4 3d 76 ae 78 bb
       0.11802778 -0.024155794 0.09573639 -0.0037945784
000180 0c 1a e4 3d f3 55 5c 3c 31 43 d3 3d a4 b4 0e be
       0.111377805 0.013448226 0.1031555 -0.13936096
000190 b4 a6 08 3e 28 e4 93 bd 7e 9e 14 3e 26 6a 8a 3d
       0.13344842 -0.07221252 0.14513585 0.067585275
0001a0 80 1c fb 3c 53 59 af 3d f9 09 63 3d ce db a5 39
       0.030653238 0.08561959 0.055429433 0.0003163502
0001b0 4e 88 c7 bc 45 70 fa bc ce b8 37 3e 5a d2 0b bd
       -0.024356987 -0.030571112 0.17941591 -0.034136154
0001c0 b5 21 bc 3d 56 72 b4 3d 31 03 62 3d 53 4e 15 3d
       0.091861166 0.0881087 0.055178825 0.03645165
0001d0 f0 72 39 bc 3b 13 03 be 2d 2d a5 bc 4e 58 82 3c
       -0.011318907 -0.12800305 -0.020163143 0.015911248
0001e0 7b 6c d7 3d 62 05 52 bc dc 14 a4 3d 71 10 9f 3d
       0.10518738 -0.012818666 0.08011791 0.07766808
0001f0 77 34 e4 3c 13 84 21 be b9 b7 aa 3d e8 d5 f1 3c
       0.027857048 -0.15773039 0.083358236 0.029520944
000200 fc 0c 4d 3d 66 bc 9f bc 0a c0 41 3d 17 7c d3 3d
       0.05006121 -0.019499015 0.047302283 0.10326403
000210 fa 32 85 3d 71 de a8 3c 91 64 a3 3c 44 31 4d bd
       0.06503864 0.02061388 0.019945415 -0.05009581
000220 f8 d1 67 bb f0 62 9a bd cc 64 ba bd e2 83 cd 3b
       -0.0035372954 -0.07538402 -0.09101257 0.006271825
000230 22 cf b8 bd 23 7f 6e 3d cb 8d e8 3d 4f 31 19 bd
       -0.090238824 0.058226716 0.1135517 -0.03740054
000240 5d 7c c9 3d 51 bb 9f 3d 75 4c 78 3d 2c ff ea 3c
       0.098381735 0.077994 0.06061979 0.028686129
000250 2b 57 2e 3e 55 ae 65 bd e8 ac 3e 3e bf b8 61 bd
       0.1702544 -0.05607446 0.18620646 -0.05510783
000260 87 4d dc 3d 66 97 ae 3d ba 41 60 3d 46 63 c9 3c
       0.10756975 0.08524971 0.05475018 0.02458347
000270 07 08 95 3c 48 e7 95 3d 99 aa 96 bd b2 22 df bc
       0.018192304 0.07319504 -0.07356758 -0.027238224
000280 b4 c7 f7 3d 35 80 80 bd 1d aa 01 3e 4c c9 e1 3d
       0.12098637 -0.062744536 0.1266255 0.110247225
000290 45 64 2a 3d 97 d6 5d bd bf 1b 54 bd 05 5f ee bd
       0.04159953 -0.054159727 -0.051784273 -0.11639217
0002a0 90 1b 0e bd 36 0c 46 bb 96 0e 0c 3e 51 88 14 bd
       -0.034694254 -0.003021968 0.13677439 -0.036262814
0002b0 42 92 e3 3d 09 fc b6 3d bb df a0 bc 91 83 5a bd
       0.11111881 0.08934791 -0.019637933 -0.053348128
0002c0 ff c5 6b 3b fc ce 17 3d 64 4d 0b 3d 99 77 ce bb
       0.003597617 0.03706263 0.034009352 -0.0063008782
0002d0 63 9c ba 3d f1 9d c7 3d df 4f 75 3d 5a 8d e0 3c
       0.0911186 0.09746922 0.059890624 0.027411152
0002e0 47 07 19 3c 02 57 1a bd d8 1b 6e bc 9f d2 af bd
       0.009340114 -0.037680633 -0.014533006 -0.08585095
0002f0 13 ad a3 bd 01 ef 93 3c 2a fd 13 be a9 49 3a 3d
       -0.07991996 0.018058302 -0.14452043 0.045480404
000300 97 90 30 3d 90 d3 9e bd 9e ea d1 3d f3 97 86 3c
       0.04310664 -0.07755196 0.10249828 0.016429877
000310 93 58 23 3d 51 20 29 3c 2e e7 33 3e 8c b1 e3 bd
       0.039879393 0.010322646 0.17568657 -0.11117849
000320 d2 1b 34 3e ab 56 23 bd 8e 62 d5 3d b4 60 a5 3d
       0.17588738 -0.039877575 0.104191884 0.08075085
000330 b8 99 1e 3d 31 9f 85 3d 11 66 0c bd 52 c2 6c 3d
       0.038720816 0.06524504 -0.034277026 0.057802506
000340 ea 71 8c bd 7a 01 63 3c 06 ab 4e 3d e4 d2 63 bc
       -0.06857665 0.0138553325 0.05045607 -0.013905261
000350 de 09 11 3e a1 65 e2 3d 5a 33 28 3d 22 74 76 bd
       0.1416392 0.110545404 0.041064598 -0.060169347
000360 cb 1c 22 3c 31 ef cb bd e7 b5 2f 3d e8 1c 56 bd
       0.00989456 -0.099577315 0.042898085 -0.05227366
000370 45 70 9e 3d 7f f3 92 b9 2d 7c 04 3e 25 7a 97 3d
       0.077362575 -0.0002802871 0.12937994 0.07396344
000380 bb a1 4b 3c 99 50 4f bd 65 ae 47 bc 41 ca b1 bb
       0.012428696 -0.050613973 -0.012187575 -0.005425722
000390 f3 07 43 3c 40 29 86 3c 1e 15 50 3d ff fa e5 3d
       0.011903751 0.016377091 0.05080139 0.11229514
0003a0 c2 90 75 3d 57 e2 a5 3d bf 82 64 3d 5d 8f e1 bc
       0.059952505 0.080998115 0.05578875 -0.027534181
0003b0 9b 7f 4c bc d6 6c e4 bd f3 1f a0 bc 56 3b 08 3c
       -0.012481595 -0.11153571 -0.019546485 0.008314928
0003c0 5c 88 d9 bd b0 4a af 3c 1e ef 9f 3d b6 e7 a1 bc
       -0.106217116 0.021397918 0.0780928 -0.019763809
0003d0 61 b0 86 3d 93 15 98 bc ef f3 08 3d 1f ae 59 bd
       0.0657661 -0.018564975 0.03343576 -0.05314457
0003e0 82 97 29 3e c8 39 0a be 51 f9 a2 3d 9a c1 cd bd
       0.16561702 -0.13498604 0.079577096 -0.10046692
0003f0 fd 8d 50 3d 9f f7 9d 3d 37 24 21 3d 1a 37 fe 3c
       0.05091666 0.077132456 0.039341178 0.031032134

bias f4 [128]
000000 2f d5 0d be 23 89 2b bc b5 ba 08 be 2b a4 2c be
       -0.13850854 -0.010469708 -0.13352473 -0.168595
000010 31 c5 51 bd 19 87 ad bd 93 7b f4 bd 8d be d3 3b
       -0.051213447 -0.084730335 -0.119376324 0.0064619244
000020 76 9a b6 bd 2e 01 e5 bd ca e9 14 be ff 0c 43 bd
       -0.0891618 -0.11181866 -0.14542308 -0.047619816
000030 24 b8 9a bd 26 f9 6b bd 89 1d d4 bd 45 f2 1c be
       -0.07554653 -0.057610653 -0.10357196 -0.15326793
000040 c7 e1 05 bc 8d 5c 50 bd b4 21 00 bd 92 d8 83 bd
       -0.008171505 -0.050869513 -0.03128214 -0.06437792
000050 d6 9a 21 be 69 b1 f1 bd 59 c4 03 be 17 76 2b 3d
       -0.15781721 -0.118014164 -0.1286787 0.041860666
000060 5b ba bd bd ca aa 4e be f7 40 89 bd 64 71 9a bc
       -0.0926406 -0.20182338 -0.06701844 -0.018852897
000070 97 b3 05 be 79 ce e8 bd d4 f1 d8 bd 69 b9 b6 bc
       -0.1305679 -0.113675065 -0.10593 -0.022305207
000080 66 98 87 bd b6 51 00 be 84 03 6b bd 3d 4f 83 bd
       -0.066208646 -0.1253117 -0.0573764 -0.06411598
000090 35 b9 b8 bc c7 0c 11 be 83 03 88 bd c3 8c c6 bd
       -0.022549251 -0.1416503 -0.06641295 -0.09694817
0000a0 3e 65 e8 bd 6a 41 93 bd 59 e7 51 bc 1b 70 2e bd
       -0.113474354 -0.07190211 -0.012811505 -0.04258738
0000b0 e9 30 ef bc a1 86 fe bd 72 76 d8 bd f2 34 ef bd
       -0.029198127 -0.12428022 -0.10569467 -0.116800204
0000c0 ff 5e 1e be 5c e8 db bd e2 0d d9 bd 8d c8 1b be
       -0.15465926 -0.107376784 -0.10598351 -0.15213223
0000d0 47 82 11 3c 75 cf 21 bd c6 70 a3 bd 27 26 cb bd
       0.008881158 -0.039504487 -0.07980494 -0.09919386
0000e0 be 77 ef bd ea 16 ce bd 94 d2 b0 bd ef 76 af bd
       -0.11692761 -0.10062964 -0.086339146 -0.08567607
0000f0 be 0a ae bd 5d fd fb 3b b9 5a e2 ba 22 ac aa bd
       -0.08498143 0.0076901154 -0.0017269469 -0.08333613
000100 e9 25 1d bd 26 22 e9 bd 93 a3 92 bd 7d 0c 51 bd
       -0.038366232 -0.113834664 -0.071601056 -0.0510373
000110 da 52 22 be 9a df 4f bd b3 5c fc bd 6f 4f f2 bd
       -0.15851918 -0.050750352 -0.123223685 -0.11831557
000120 24 81 62 bd 31 ee 35 bd 60 41 be bd 8a cb 25 be
       -0.05529894 -0.04441661 -0.09289813 -0.16190925
000130 a5 45 a0 bd fc 0e 9f bd b4 11 d0 ba cf 23 91 bc
       -0.07825784 -0.0776653 -0.0015874417 -0.01771727
000140 55 42 9b 39 b8 ae 58 bd 25 47 76 bd 7c 04 c8 bb
       0.00029613325 -0.052901 -0.060126442 -0.00610405
000150 be 31 9d bd ab c2 ef bd c9 4e 4c bd 14 9b 24 bc
       -0.07675503 -0.11707052 -0.049879823 -0.010046739
000160 72 42 34 3d 5c 6d c4 bd d7 03 01 be bd 82 8f bd
       0.04400868 -0.09591171 -0.12599121 -0.07007358
000170 bf 38 f8 bd 4b b7 27 be 82 be 52 bd 20 d3 01 be
       -0.121201985 -0.16378514 -0.051451214 -0.12678194
000180 a9 0f bf bd 2b 7f 07 be 7c b0 c4 bd 14 d6 0f be
       -0.09329159 -0.13232104 -0.09603974 -0.14046508
000190 5a 39 76 bd a1 1a 5a 3d ed d2 c7 bd 9c 54 e1 bd
       -0.06011329 0.05324805 -0.09757028 -0.11002466
0001a0 40 9e 99 bd 9d 41 1b bd ca 80 17 be c8 1e 46 bd
       -0.07500887 -0.03790437 -0.14795223 -0.0483692
0001b0 96 3d 17 be 37 54 cc bd 3c dd da bd b6 69 67 bd
       -0.14769587 -0.09977 -0.10686728 -0.0564973
0001c0 10 50 a4 bd 6b f6 ff bd 52 4d c4 bb bb 64 9f bd
       -0.08023083 -0.124981724 -0.0059906626 -0.07782885
0001d0 21 b3 e0 bd 2b 1d 4b bd 3c c2 10 bd 42 8e d1 bd
       -0.10971666 -0.049588364 -0.035341486 -0.10232212
0001e0 13 2d 59 bd 4b 1b f3 bd d0 38 fc bd a3 74 1e bd
       -0.0530215 -0.1187044 -0.123155236 -0.038685452
0001f0 e3 96 f4 bd f1 69 cf bd ed 9c 0f be a6 75 1e be
       -0.11942842 -0.101276286 -0.14024706 -0.15474567

weight f4 [4, 128]
000000 51 48 15 3c 2e 09 64 be e2 da 66 bd c2 7e 10 bd
       0.00911148 -0.22269127 -0.056361087 -0.035277136
000010 e9 6c bd bc 1f 08 20 bc 83 43 48 3d 17 b5 8a 3e
       -0.023123221 -0.009767561 0.04889251 0.27091286
000020 1f c9 8e 3c 72 79 48 bd 0a 40 03 be 69 3c 23 3d
       0.017429886 -0.048943944 -0.12817398 0.039852533
000030 c0 3a cf 3c b2 1d f4 bc 1b 6e 30 be 8e 17 01 bd
       0.025296569 -0.029799316 -0.17229502 -0.031516604
000040 4a 10 8b be 91 b9 1d be 45 fa 85 3e 53 29 03 be
       -0.27160865 -0.15402819 0.26167503 -0.12808733
000050 25 1f 8c bd 69 82 64 bc 66 f7 fd 3c d7 af 60 bd
       -0.06841878 -0.013947108 0.031001758 -0.054855194
000060 fa 33 8d bd 2d 33 e2 3b 4a 42 25 bc 3d 2d 48 3b
       -0.06894679 0.0069030733 -0.010086605 0.0030544542
000070 6a f6 4d 3c fd 0a c6 3c 33 fc 01 3d ad a9 09 3e
       0.012570957 0.024175161 0.031734657 0.13443632
000080 3b 1d 6d 3e 67 bb 76 bd ef fd 13 3c 57 c9 3e 3d
       0.23155682 -0.060237315 0.00903271 0.04657873
000090 55 6e c4 be 40 0e 03 bd 27 d8 55 bd 99 4a 8f 3b
       -0.38365427 -0.03199601 -0.052208092 0.0043729064
0000a0 66 50 ac bb 33 d3 1c 3d a9 71 2a be 43 2f 30 be
       -0.0052586077 0.038287353 -0.1664492 -0.17205529
0000b0 6a d5 04 3d 3f c6 3f 3d 49 5e 23 3d af 85 36 3e
       0.03243009 0.04681992 0.03988484 0.17824434
0000c0 05 a8 2f 3c 02 a1 19 be 51 41 29 3e 6b a1 e5 bc
       0.010721211 -0.15002826 0.16528822 -0.028031072
0000d0 85 09 3c 3c 5b 32 a0 3c f1 7a 8e bc 01 85 21 bc
       0.011476879 0.019555261 -0.017392607 -0.009858371
0000e0 30 c4 33 3d ed bd ce 3c 67 ca 09 3c fe 51 3d bd
       0.04388827 0.025237048 0.008410073 -0.046220772
0000f0 32 44 16 bd 00 dc 80 3d 9b a5 1e 3e 1d a7 02 be
       -0.03668613 0.06291962 0.15492861 -0.12759061
000100 36 3f 91 bc 24 e9 48 bd 36 49 34 3d 83 a0 8a 3d
       -0.017730337 -0.049050465 0.044015132 0.067688964
000110 61 bd c1 bd e3 d1 f5 3b 06 2f e6 3d 9a 92 d4 bd
       -0.09459949 0.007501827 0.11239438 -0.103795245
000120 d5 3c 12 3d 18 c6 25 bd 87 fc 64 bd 24 25 90 3d
       0.035702545 -0.04047212 -0.05590489 0.07038334
000130 7d bd 44 bd 2b 86 3f 3d b4 a1 62 3d 0d f6 13 be
       -0.048032273 0.046758812 0.055329993 -0.1444933
000140 40 1f 37 3d 24 63 87 3e c9 95 51 3d da 8f b5 be
       0.044707537 0.26442826 0.051168237 -0.35461313
000150 00 0b a7 3b e4 c3 4f bd b3 a4 c2 bc dd 07 fe bd
       0.005097747 -0.050723925 -0.023760175 -0.124038436
000160 00 80 12 be 26 57 6d bc 26 9f d6 3d df 3c 61 bc
       -0.1430664 -0.01448611 0.10479574 -0.013747423
000170 eb 31 2d bd 2c dd 4f 3d f3 22 74 bd ef 7b 4c bb
       -0.042283934 0.050748035 -0.059603643 -0.00312018
000180 aa 48 fb bd 1f 80 d9 3c a7 fb 13 bc 84 40 95 bc
       -0.12269719 0.02655035 -0.009032167 -0.01821924
000190 65 ea ae 3d 29 2f e0 3d 7d f3 bc bc d8 4e df bd
       0.08540801 0.10946495 -0.023065323 -0.1090371
0001a0 d6 22 6c bd 08 80 f9 3c 23 88 0c be 7f 49 8e 3d
       -0.05765041 0.030456558 -0.13723807 0.06947612
0001b0 23 48 1e 3d 86 e2 cd 3c 06 93 f6 bc 99 69 7c bd
       0.038643014 0.025132429 -0.030099403 -0.061624143
0001c0 2d 87 d8 39 51 98 81 3c 30 85 dc 3d 59 e8 d6 3c
       0.00041299444 0.0158197 0.10767591 0.026233839
0001d0 fd a6 02 be 4f 52 85 bd 75 14 de 3c 4a db c3 bc
       -0.12759013 -0.0650984 0.027109364 -0.023908276
0001e0 3b b4 86 be 16 21 21 3d 93 da 4a bc 8f e5 7d bd
       -0.2630938 0.039338194 -0.012381214 -0.061986502
0001f0 eb 86 66 bd 6e 50 8a bd 84 4b b4 bd 34 3b d4 bd
       -0.05628101 -0.06753622 -0.08803466 -0.103628546
000200 d5 c2 f5 bb 6c 13 60 3e f6 08 98 bd 69 f4 c1 bd
       -0.0075000324 0.21882409 -0.07423584 -0.09470446
000210 a3 88 43 bd 17 f6 97 3c 93 fe b2 bc ad 5a 4b be
       -0.04773773 0.018549962 -0.021849906 -0.19858809
000220 61 44 77 3d d7 d7 53 bd 79 1b ab bd 42 2e 6f 3c
       0.060367946 -0.051719513 -0.08354849 0.014598431
000230 56 db b5 3a 51 79 b4 bc c6 04 32 3e 30 af d4 bd
       0.0013874571 -0.022030504 0.17384633 -0.10384977
000240 5f f8 af 3e c9 e0 c7 be e2 27 56 bd 4f be 6a 3d
       0.3436918 -0.39038685 -0.05228413 0.0573104
000250 0b a1 6c bd fa 06 2d be 0d 48 e4 3d cd 21 a7 3e
       -0.05777077 -0.16897193 0.11146555 0.32642975
000260 5a 05 ea 3c d3 f0 66 bd 91 eb 02 3d fb 07 ae be
       0.028567005 -0.05638201 0.031962935 -0.33990464
000270 3f f9 9f 39 e1 c9 90 bc 38 68 0d b9 a2 d2 63 be
       0.00030512546 -0.017674388 -0.00013485632 -0.22248319
000280 fa b1 ab be 7c d4 d8 3c 1a cb 17 3e 93 29 d3 bb
       -0.33534223 0.026468508 0.14823571 -0.006444165
000290 47 d8 cb bd c6 88 f6 bc 25 a7 b7 bb 28 12 0c bd
       -0.09953361 -0.030094516 -0.005604642 -0.034197003
0002a0 40 19 d1 3c 5e 9a 2d 3c 42 33 e9 bd df 2f 17 bc
       0.025524735 0.010595886 -0.1138673 -0.009227722
0002b0 bb f8 33 bd 2e da c8 3d db 11 3a 3d 12 8f 4b be
       -0.04393838 0.098072395 0.045427185 -0.19878796
0002c0 2b bd ba bd d8 ae fa 3d 41 1d 85 3d 9c 90 ba bd
       -0.09118112 0.1224038 0.0649972 -0.09109613
0002d0 71 50 b5 3d d4 46 30 3d 52 c5 98 ba b5 8c 82 bb
       0.088532336 0.043036297 -0.0011655486 -0.0039840587
0002e0 f3 fb af bb 0e 2a 53 bd 7b 0d 9c 3b 39 04 ce bd
       -0.005370611 -0.05155378 0.004762349 -0.10059399
0002f0 85 95 80 bd 4b 0d 34 3e 1f 72 94 be dc 64 34 3d
       -0.062785186 0.17583196 -0.28993317 0.0440415
000300 60 bf a1 bb ee e8 bc 3b 60 03 11 bd aa c5 10 3d
       -0.0049361438 0.005765072 -0.03540361 0.035344757
000310 36 dd 0d 3d 94 29 ab b9 21 5f 55 bc 9a 9c 46 bd
       0.03463479 -0.0003264664 -0.013023169 -0.04848919
000320 49 8c 03 bc 98 d8 8e bd f2 c6 2b bd ca d0 2c 3b
       -0.008029052 -0.06974906 -0.041937776 0.0026369565
000330 4e ac de 3b 27 65 95 3c 03 6c c8 bb a1 cb 4e be
       0.0067954427 0.01823671 -0.0061163916 -0.20194866
000340 75 a5 99 3d e6 a5 4b be 21 3e 2b 3d 29 41 0b 3e
       0.075022615 -0.19887504 0.041807298 0.13599075
000350 18 bf db bd 81 4f 6e 3d 18 41 87 bd df 53 d8 bc
       -0.107298076 0.05818129 -0.066042125 -0.02640718
000360 73 6f 77 3e 46 b2 9e bd b2 58 91 bc c9 54 1e bc
       0.24163608 -0.07748847 -0.017742489 -0.009663769
000370 cb 2f bf bd cc 89 ce bb 3c 4d 54 3d 73 8b 6f 3b
       -0.09335288 -0.0063030478 0.05183147 0.0036551624
000380 e3 60 7c 3e a7 92 82 bd 6e e1 58 bd 81 22 d7 ba
       0.24646334 -0.06375628 -0.05294936 -0.0016413481
000390 26 bf 67 3c f3 6e 8d 3e 66 73 fe 3c 66 fc 68 bc
       0.014144694 0.2762371 0.031060886 -0.014220333
0003a0 b7 3c 3d bd c7 9e c9 3c 5d 64 fe 3c 73 89 b6 3d
       -0.04620048 0.024611844 0.031053716 0.08912935
0003b0 ee bd 31 3b 3c 1e 28 3c 2b 46 dd ba 43 de a7 bd
       0.0027121264 0.010261115 -0.0016881874 -0.0819669
0003c0 94 de b1 bd 69 de 80 ba 04 7d 68 3d 48 fe ab 3b
       -0.086850315 -0.0009831908 0.05675985 0.0052488185
0003d0 79 80 66 3d 17 7d 4e bd 99 6b 86 3d ab 0e 73 bd
       0.056274865 -0.050412264 0.065634914 -0.05934016
0003e0 fd d3 de bb 1b c5 c7 bb 72 fa cf bc a1 79 3c 3c
       -0.0068001733 -0.006096495 -0.025387976 0.011503608
0003f0 dc fc a0 bd b8 7c bc bd 5f ee 58 be 58 f0 03 be
       -0.07860729 -0.09203476 -0.21184681 -0.12884653

bias f4 [4]
000000 08 0b da bd b4 8f ec 3d ab 53 7d 3d 5f ca 05 be
       -0.10646635 0.11550847 0.06184737 -0.1306548

weight f4 [50, 5, 5]
000000 b6 c7 93 be 9c f0 9c bf cd 1d df 3e ac 9b 32 bf
       -0.28863305 -1.2260928 0.43577424 -0.69768786
000010 9c eb cf 3e 3f 3f 81 be 32 ef 00 bf 89 60 a7 3e
       0.40609443 -0.25243565 -0.50364983 0.32690838
000020 8c 91 b2 3e 10 cb ef 3e b5 31 07 bf d2 05 e3 bf
       0.34876668 0.46834612 -0.5281022 -1.7736151
000030 51 7d 9c bd dd 24 70 3f 8a 06 f1 bf bc 9b a9 bf
       -0.0764109 0.9380625 -1.883012 -1.3250651
000040 9c 9c b4 bf 0b ea d1 bd 97 03 63 3f 40 5a 7e 3e
       -1.4110293 -0.10249718 0.8867735 0.24839115
000050 75 b9 73 3f fb 22 81 3d 8a 34 24 bf 8b 5a 6c 3e
       0.9520486 0.063055 -0.6414267 0.23081414
000060 3b 95 9a 3e 0e 58 75 be e0 92 e2 bf 3c dc 6e 3f
       0.3019198 -0.23959371 -1.7701073 0.933048
000070 11 ae b3 bf 74 46 4f bf f7 fb 2e bf 3d 27 cf 3f
       -1.4037496 -0.8096688 -0.6835322 1.618385
000080 24 35 44 3f 9c 6b 92 bf 3e bc 84 bc ca 88 74 3f
       0.76643586 -1.143909 -0.016203042 0.95521224
000090 b7 50 7b bc 0e 51 62 3f 1d 34 e0 3e 48 c0 c7 3e
       -0.015339068 0.8840493 0.4378976 0.39013886
0000a0 2a f5 aa bf 6d 60 ce be 97 05 13 bd da 57 2c 3f
       -1.3356068 -0.40307942 -0.035894003 0.6732155
0000b0 0f 78 5e 3c 90 d9 16 3f 91 0c 15 be 9f e6 fd bc
       0.013578429 0.58925724 -0.14555575 -0.030993758
0000c0 7e 7d 9c bf 01 45 0e c0 cd cb ea be 6c 19 5e 3f
       -1.2225797 -2.2229617 -0.45858613 0.8675754
0000d0 ac 11 ec 3f 1a 34 40 3f 13 8c e3 bf e9 cc 3a be
       1.8442893 0.750795 -1.7777122 -0.1824223
0000e0 dd 52 5d bf dd 94 a9 be 0d ef 6a 3f 5f 43 bc 3f
       -0.86454564 -0.33121386 0.9177101 1.470806
0000f0 6c c4 f5 bd b3 1b a7 bf 9c d6 9f bd cc 95 d4 3d
       -0.12000355 -1.3055328 -0.07804605 0.10380134
000100 d3 aa 90 3f b9 0f 2e 3c cb 69 8d 3e a3 f3 4c bf
       1.1302131 0.010623866 0.27619776 -0.8005926
000110 c4 10 f7 3f fd e5 01 bf 9f 16 54 be 9d 20 b9 3f
       1.9301991 -0.5074156 -0.20711754 1.4463078
000120 1c 53 03 bf d4 d6 dc 3f de 80 c5 3e e2 86 23 bf
       -0.5129869 1.725306 0.3857488 -0.6387769
000130 8a 47 51 3f b5 8a 32 3f 37 83 52 3f 50 05 1e 40
       0.81749785 0.697429 0.8223147 2.4690742
000140 36 d4 00 c0 48 31 c1 3e 16 16 06 bf b0 ef e8 3d
       -2.0129523 0.3773291 -0.5237745 0.11373842
000150 ff f1 e4 be e3 45 b4 bf 8e d0 3a 3f 6e d8 47 3f
       -0.44715878 -1.4083828 0.7297448 0.7806462
000160 cb a1 51 3f 28 0f a8 3e 9a b3 fc bf ea 93 5c bf
       0.818875 0.32824063 -1.974231 -0.861632
000170 63 1c 17 bf f9 33 1a 3f 2c a9 8e 3f 89 69 5a bf
       -0.5902769 0.60235554 1.1145377 -0.85317284
000180 cc cf 34 3f 84 a3 b3 be 99 fc 9d 3f 4b 90 b8 3e
       0.7062957 -0.3508569 1.2342712 0.36047587
000190 36 5a 85 bf ac 76 8c 3f bd c6 aa bf 14 48 d3 bf
       -1.0418155 1.0973716 -1.33419 -1.6506371
0001a0 be 99 94 3e dd 4f 7a 3f 06 33 8b bf 40 ed 17 be
       0.29023546 0.9777811 -1.0874946 -0.14836597
0001b0 f1 1b b4 bf 98 31 91 bf a2 02 14 3f c3 93 d5 3f
       -1.4071027 -1.134326 0.5781652 1.6685718
0001c0 d7 97 4e bf 78 83 d2 3e c9 97 66 be 84 5f 9c 3f
       -0.8070044 0.41115928 -0.22518839 1.2216649
0001d0 ae d8 92 bf bd 7e c8 3e ac fc 2a 3f 39 df 30 bf
       -1.1472375 0.39159194 0.66791797 -0.6909061
0001e0 17 19 a5 bf 39 7f a1 3e 4c 24 05 3f 89 8e 1f bf
       -1.2898282 0.31542376 0.5200851 -0.62326866
0001f0 0b 48 0e bf c9 5e 40 bf 9c 83 a1 bf 81 af 12 c0
       -0.5557868 -0.7514463 -1.2618289 -2.291962
000200 d2 0d ca be 2b d3 00 3d fd 08 00 40 f5 12 1b 3f
       -0.3946367 0.031451385 2.0005486 0.605758
000210 d7 d9 8f 3f 95 78 3b 3f 01 2d 87 bf 3d b2 54 3f
       1.1238354 0.7323087 -1.0560609 0.8308447
000220 63 a6 27 bf be e5 ad bf 37 49 da 3e 9e c9 85 3f
       -0.6548826 -1.3585737 0.42633983 1.0452154
000230 fd 19 18 bf 6a ad 86 bf 40 2c fd bd ca d6 24 3f
       -0.59414655 -1.0521672 -0.12361956 0.6439024
000240 95 4c b1 bf 13 33 ac bd e8 97 39 bf f6 66 68 be
       -1.3851496 -0.08408179 -0.72497416 -0.22695526
000250 5a a9 1d be 4d d4 72 3f 6d 6b 8a bf d2 79 e9 bc
       -0.15396634 0.94855195 -1.0814034 -0.028500471
000260 97 a3 f5 3d c9 83 99 bf d1 8f bf bf 07 a2 57 3f
       0.11994093 -1.1993343 -1.4965764 0.8423161
000270 68 56 90 3d b1 5d 9e bf a6 3c 8f bf f4 5e 5a 3c
       0.07047731 -1.2372342 -1.1190383 0.013328303
000280 33 94 d0 3e 6d 7b 1a be 71 8f 7e be 43 0c 71 be
       0.40738067 -0.15086146 -0.24859406 -0.23539834
000290 8d a4 ef be 36 28 65 bf 0a e6 8d bf 0d 97 4e be
       -0.4680523 -0.8951448 -1.1085827 -0.20174809
0002a0 94 fd a6 bf 6b ea 44 be 8e d2 15 3f 28 43 9a 3d
       -1.3046136 -0.19230048 0.58524406 0.0753234
0002b0 a8 4d 92 be a6 8a 00 be 2d 6c ae 3f c3 44 ab 3e
       -0.28574872 -0.1255289 1.3626763 0.334509
0002c0 f9 3b f7 3e 2f 54 97 3f 44 95 e7 bd 4a 62 15 3f
       0.48287943 1.1822566 -0.11307767 0.583531
0002d0 06 48 d9 be 9e cf 1c 3f a7 91 0e 3f 91 26 03 3e
       -0.42437762 0.612543 0.55691 0.1280768
0002e0 a8 c6 11 bf 4c 7e 15 3e fd 94 e4 be 4a 30 15 40
       -0.5694375 0.1459896 -0.4464492 2.3310723
0002f0 df 6d 97 3e 3c d4 b7 3f 12 e2 82 3e 4f 4c b9 3e
       0.29576012 1.4361644 0.25563103 0.3619103
000300 bb b5 d8 bd 1a 81 1a 3f d1 a8 d5 3f 06 f5 ba 3f
       -0.10581537 0.60353243 1.6692144 1.4606025
000310 3e 30 2e bf c2 dc 6a bf 11 24 03 c0 40 fc 07 3f
       -0.6804236 -0.917431 -2.0490763 0.5311928
000320 23 11 e6 bf 45 a2 ac 3f 0e 30 d0 be c9 b4 c7 bf
       -1.797398 1.3487021 -0.40661663 -1.5602046
000330 1f 89 ac be f4 e4 6e bf 04 18 20 bf 02 cf d5 bd
       -0.33698365 -0.93318105 -0.62536645 -0.10439874
000340 42 70 dc be 59 10 b2 be 31 2a 56 bf 91 27 2a be
       -0.43054396 -0.34778097 -0.8365813 -0.16616656
000350 81 91 f2 bf 66 7a 67 3f b1 a2 a1 3e 7d c4 65 bf
       -1.8950654 0.9042114 0.31569436 -0.8975294
000360 0c 88 4d 3f 56 6f e6 bf 5e c7 c1 3e 03 68 94 3d
       0.80285716 -1.8002727 0.37847418 0.07246401
000370 eb 9f c1 3f 9c 74 8e bf 69 f9 00 40 6a 0d f2 3e
       1.5126928 -1.1129336 2.0152228 0.4727586
000380 26 e6 98 3d ee 4a 87 3f f5 69 8d 3f 89 29 b7 3f
       0.07465772 1.0569742 1.104796 1.430955
000390 21 b9 4b be d5 9a 46 3f 30 1e 07 3f 32 d9 c9 3e
       -0.1989484 0.77580005 0.5278044 0.3942352
0003a0 81 9c 61 3f d8 c9 d4 be 96 21 9f bf 00 00 93 3f
       0.8812943 -0.41560245 -1.2432125 1.1484375
0003b0 53 99 bb bf 4d 6e 27 3e 03 4c 5b 3e 80 43 2e 3f
       -1.4656166 0.1635067 0.21415715 0.68071747
0003c0 b4 96 fc bf 58 6f a3 3f ff ee 08 bf 1e 0e 5e bf
       -1.9733491 1.2768354 -0.5348968 -0.8674029
0003d0 9d 1d 44 bf 4d fb 3b 3f e1 73 9d be 48 06 1a 3f
       -0.76607686 0.7343033 -0.3075247 0.60165834
0003e0 29 c8 b2 3e ce 57 44 be 62 7b 4c bf dc 15 20 c0
       0.34918335 -0.1917412 -0.7987577 -2.5013342
0003f0 c5 94 0c be 8a 65 3f 3f f3 66 ac 3e 00 7f b8 3e
       -0.13728626 0.7476431 0.33672294 0.36034393

theta f4 [50, 5, 5]
000000 2c 48 f4 3f 7a 55 1a 40 d1 dc 57 3f 47 28 d6 3f
       1.9084525 2.411467 0.84321314 1.6731042
000010 37 c1 fa 3f fd 09 75 3e a2 17 53 bf d8 d8 4d bf
       1.9590214 0.23929591 -0.82457936 -0.80409
000020 59 3b 63 bd 20 ed cb bd 01 4b 3a 3d a6 73 30 3f
       -0.05547652 -0.099573374 0.045481686 0.68926466
000030 02 4e 3f bf 79 20 e8 3d a0 25 08 bf ac 57 70 be
       -0.74728405 0.11334319 -0.5318241 -0.23470944
000040 a7 82 0b be 98 a3 66 3f 21 be bd 3f d9 60 96 bf
       -0.13624059 0.90093374 1.4823648 -1.1748306
000050 28 59 84 3f d5 e9 a5 3f f9 c4 4e be 0d 1c 88 3e
       1.0339708 1.2961985 -0.20192327 0.265839
000060 98 3f ad bf db 7d a4 bf e3 59 b1 3f 1a e2 46 bf
       -1.3535032 -1.2850908 1.3855556 -0.77688754
000070 55 81 48 bf 4d 23 47 3f 3b ea 2e 3f bd 49 57 40
       -0.78322345 0.7778824 0.6832616 3.3638756
000080 39 22 9d 3f 42 df 53 3f 58 d1 f4 be 1a 5e 23 bf
       1.2276069 0.8276254 -0.47815967 -0.6381546
000090 1d df 4f bf 72 a7 80 bf 95 41 4b be 31 cc 99 3e
       -0.8119982 -1.00511 -0.19849236 0.30038598
0000a0 7a 03 8c 3f 1f 10 ee 3f 99 00 6d be 5d 25 13 3f
       1.0938561 1.859867 -0.23144759 0.57478887
0000b0 c5 36 77 bf 73 7f cf bf 25 9b 23 3f be 31 08 bf
       -0.96567947 -1.621077 0.63908607 -0.532009
0000c0 fd 61 92 3e 89 b2 bc bf b3 8f 90 3f 3f 42 35 be
       0.28590384 -1.4741985 1.1293854 -0.17701052
0000d0 3f 2b 12 bf 62 d1 d9 3f 7f 77 72 bf b1 d2 ac bf
       -0.5709724 1.7017024 -0.94713587 -1.3501798
0000e0 79 b8 9b bf 98 41 08 c0 6f 2a 7c 3f ae a5 66 be
       -1.2165672 -2.1290035 0.9850225 -0.2252414
0000f0 15 65 47 3f 73 60 b9 bf b8 93 31 3f d8 60 e0 bf
       0.77888614 -1.4482559 0.69366026 -1.7529554
000100 9a 49 30 bf f3 c0 a2 3e dc 84 cd bf 2c 95 f9 3e
       -0.6886231 0.31787834 -1.605617 0.48746622
000110 4f ea e6 3f cf 9f b4 bf cd 13 87 3e 1b 99 2e bf
       1.8040255 -1.411127 0.26382294 -0.6820237
000120 27 70 8b 3f 42 ee 83 3a 6c 1f 10 3f 28 67 a1 bf
       1.0893601 0.0010065513 0.56297946 -1.2609606
000130 07 c7 0e bf 67 f4 36 bf 6e 85 3e bf bc e4 fc bd
       -0.5577244 -0.7146668 -0.7442235 -0.12348315
000140 62 41 15 3f 49 23 b9 3e b0 65 9c 3d f4 d0 fd bc
       0.5830289 0.36159733 0.07636583 -0.030983426
000150 7d 1c ce bf 69 f2 05 3f 1b 73 8b 3e ff 4e 9c bf
       -1.6102444 0.52323014 0.27236256 -1.2211608
000160 74 3e 00 40 5f 94 31 3f c1 fa 41 bf d0 5f 0e bf
       2.0038118 0.6936702 -0.75773245 -0.5561495
000170 bd e1 b7 bd 8e 3e a9 3f 4e cc ee bd 42 29 32 3f
       -0.08978603 1.3222215 -0.11660062 0.69594204
000180 0a 72 c2 3f 85 98 8a 3e 33 10 22 c0 65 96 16 40
       1.5191052 0.27069488 -2.5322387 2.3529294
000190 92 e2 06 bf 7f ed 35 3e c7 49 94 3d 23 4b f4 bd
       -0.5268947 0.17766379 0.072406344 -0.11928394
0001a0 ec 65 24 be 5d 49 f1 be 85 3a e7 3f 1b 6c 93 3e
       -0.16054505 -0.47126284 1.8064734 0.28793415
0001b0 70 15 46 3f 1d 75 ef be 6d 14 7f be f3 b2 d2 3f
       0.7737646 -0.46769038 -0.24910136 1.6460861
0001c0 a9 ac 00 3d 1f 5c e4 bf 88 e2 9a 3e a4 cc 99 3f
       0.03141466 -1.7840613 0.30250955 1.2015576
0001d0 92 bc cb bc 02 93 f5 3d 57 6f fb be a1 a1 91 3f
       -0.02487019 0.1199093 -0.49108383 1.137745
0001e0 fd 9e c4 3f 25 55 67 be a0 0d 0f be 50 68 fb be
       1.5361019 -0.22591074 -0.13970041 -0.49103022
0001f0 d8 96 cf 3f ac af a0 3f 38 3f 51 bf 30 e7 1d bf
       1.6217909 1.2553611 -0.8173709 -0.6168089
000200 bc 0f e0 3c a5 8f e7 3f 9e b6 b0 bf c7 f0 e6 bf
       0.027351253 1.8090712 -1.380573 -1.804223
000210 a0 db d6 bf fb 56 94 3f 3a ef 79 bf 6d 7a 80 3f
       -1.6785774 1.1589044 -0.97630656 1.0037361
000220 3f bc 5f bb 87 7c c2 3e d8 cf c5 be 55 72 12 bf
       -0.0034139303 0.37985632 -0.38635135 -0.57205707
000230 58 1f e1 be e2 58 4b 3f 23 08 c5 bf 08 94 f3 bf
       -0.43969226 0.794325 -1.5393108 -1.902955
000240 5d 5b 26 3f d0 ac 62 be 9f ac 70 3f e3 74 de 3c
       0.6498316 -0.22136235 0.940134 0.027155345
000250 b6 97 7d 3e 91 26 d2 3e b0 b8 21 bf 51 93 12 c0
       0.24764904 0.4104505 -0.63172436 -2.2902415
000260 46 74 49 be 08 f8 20 bf a1 1f 95 3f 8b bc 56 3f
       -0.19673261 -0.62878466 1.1650277 0.83881444
000270 4a 81 4c be b2 41 d8 be 68 72 89 be 4a aa 89 3f
       -0.19971195 -0.42237622 -0.26845098 1.0755093
000280 08 f5 fe 3f b5 da 85 3f ef c1 52 bf 1a b7 30 bf
       1.9918528 1.0457369 -0.8232717 -0.6902939
000290 cb d5 87 bf 71 72 81 bf 6d 4a 00 be 4b 5f ef 3e
       -1.061212 -1.011305 -0.12528391 0.4675239
0002a0 15 f5 31 3f c6 c1 01 c0 77 61 d8 3e 6f 74 2f bf
       0.6951459 -2.027452 0.4226186 -0.6853704
0002b0 4b f0 50 3f d1 ff 84 3f ee 3e 03 bd fd 2b e2 bf
       0.8161666 1.0390569 -0.032042436 -1.7669674
0002c0 02 94 25 3e b8 9d 96 bf 89 c2 72 bf c7 9a 01 3f
       0.16169742 -1.1766882 -0.9482809 0.50626796
0002d0 c5 ae 02 3f 97 5d 14 3f 74 fc a0 3e 24 fc 18 3f
       0.5104793 0.57955307 0.31442606 0.59759736
0002e0 37 c7 c3 3f da a9 4d bf 7d 7d f5 3e 80 67 b0 3d
       1.529517 -0.803373 0.47947302 0.08613491
0002f0 4f d6 4b 3e 33 0c ab be 9d 50 e1 bd a4 87 fa ba
       0.19905971 -0.33407745 -0.11001704 -0.001911391
000300 b0 13 6a be f7 66 f1 3e 07 1e 06 bf 60 6a 4f be
       -0.22859073 0.47148868 -0.5238957 -0.20255423
000310 9b c2 19 3f ac ef 8e bf 20 82 95 3f 5d 43 0c 3f
       0.6006257 -1.1166892 1.1680336 0.5479029
000320 d2 23 ae 3e 02 5c 9e bf 2e 41 78 3f 4c cc 52 3e
       0.34011704 -1.2371829 0.96974456 0.20585746
000330 08 57 89 be 26 90 e1 3f a2 ce 15 bf 2a 62 ca 3e
       -0.26824212 1.7622116 -0.5851842 0.39528018
000340 31 08 68 3e 1a 08 d4 3f 80 92 35 3f 29 c8 45 3f
       0.22659375 1.6564972 0.70926666 0.77258545
000350 52 e8 c4 bf 73 31 82 bf 86 db 64 be c8 6a 8b 3e
       -1.5383399 -1.0171341 -0.22349367 0.27229905
000360 79 fa e8 3d dd d6 d5 3e 11 65 78 bf 6d 94 a3 3c
       0.11375899 0.4176549 -0.97029215 0.019968236
000370 4e 44 35 3f a7 d9 42 3d cb 48 d6 3f b3 9f 11 3e
       0.7080735 0.04757085 1.6740965 0.14221077
000380 b0 83 0d c0 aa e5 96 bf 3f 21 85 3f a4 96 7d bf
       -2.2111626 -1.1788838 1.0400771 -0.99057984
000390 a8 aa 23 3d 57 81 86 3e e3 5a ac bf 1d b0 8a bf
       0.039957672 0.26270553 -1.3465236 -1.0834996
0003a0 a5 dd 08 bf cc 27 ce be 49 ce 47 3f 48 07 b1 3e
       -0.534632 -0.40264738 0.7804914 0.34575868
0003b0 09 ce 96 3f b8 b4 35 bf 20 5e 3f 3e db ae f3 be
       1.1781627 -0.7097888 0.1868825 -0.47594342
0003c0 5e 15 37 bf 70 89 17 bf a7 9f c5 bf 7d 76 96 3f
       -0.7151698 -0.5919409 -1.5439347 1.175491
0003d0 f1 c5 50 3e 32 c4 9d 3e bb a0 3d 3f bd 2f c0 3f
       0.20388009 0.30813748 0.7407338 1.5014569
0003e0 61 97 41 bf d9 ce 88 bf 93 40 35 bf 88 21 01 3f
       -0.7562161 -1.0688125 -0.7080166 0.5044179
0003f0 43 c7 04 bf bf f5 97 3e 4e f1 8a bf 23 cc a1 be
       -0.5186655 0.29679677 -1.085489 -0.31601056
